----------------------------------------------------------------
        Layer (type)               Output Shape         Param #
================================================================
            Conv2d-1         [-1, 64, 120, 120]           6,976
              ReLU-2         [-1, 64, 120, 120]               0
            Conv2d-3         [-1, 64, 120, 120]          36,928
              ReLU-4         [-1, 64, 120, 120]               0
         MaxPool2d-5           [-1, 64, 60, 60]               0
            Conv2d-6          [-1, 128, 60, 60]          73,856
              ReLU-7          [-1, 128, 60, 60]               0
            Conv2d-8          [-1, 128, 60, 60]         147,584
              ReLU-9          [-1, 128, 60, 60]               0
        MaxPool2d-10          [-1, 128, 30, 30]               0
           Conv2d-11          [-1, 256, 30, 30]         295,168
             ReLU-12          [-1, 256, 30, 30]               0
           Conv2d-13          [-1, 256, 30, 30]         590,080
             ReLU-14          [-1, 256, 30, 30]               0
           Conv2d-15          [-1, 256, 30, 30]         590,080
             ReLU-16          [-1, 256, 30, 30]               0
           Conv2d-17          [-1, 256, 30, 30]         590,080
             ReLU-18          [-1, 256, 30, 30]               0
        MaxPool2d-19          [-1, 256, 15, 15]               0
           Conv2d-20          [-1, 512, 15, 15]       1,180,160
             ReLU-21          [-1, 512, 15, 15]               0
           Conv2d-22          [-1, 512, 15, 15]       2,359,808
             ReLU-23          [-1, 512, 15, 15]               0
           Conv2d-24          [-1, 512, 15, 15]       2,359,808
             ReLU-25          [-1, 512, 15, 15]               0
           Conv2d-26          [-1, 512, 15, 15]       2,359,808
             ReLU-27          [-1, 512, 15, 15]               0
        MaxPool2d-28            [-1, 512, 7, 7]               0
           Conv2d-29            [-1, 512, 7, 7]       2,359,808
             ReLU-30            [-1, 512, 7, 7]               0
           Conv2d-31            [-1, 512, 7, 7]       2,359,808
             ReLU-32            [-1, 512, 7, 7]               0
           Conv2d-33            [-1, 512, 7, 7]       2,359,808
             ReLU-34            [-1, 512, 7, 7]               0
           Conv2d-35            [-1, 512, 7, 7]       2,359,808
             ReLU-36            [-1, 512, 7, 7]               0
        MaxPool2d-37            [-1, 512, 3, 3]               0
AdaptiveAvgPool2d-38            [-1, 512, 7, 7]               0
           Linear-39                 [-1, 4096]     102,764,544
             ReLU-40                 [-1, 4096]               0
          Dropout-41                 [-1, 4096]               0
           Linear-42                 [-1, 4096]      16,781,312
             ReLU-43                 [-1, 4096]               0
          Dropout-44                 [-1, 4096]               0
           Linear-45                   [-1, 19]          77,843
================================================================
Total params: 139,653,267
Trainable params: 139,653,267
Non-trainable params: 0
----------------------------------------------------------------
Input size (MB): 0.66
Forward/backward pass size (MB): 68.49
Params size (MB): 532.73
Estimated Total Size (MB): 601.89
----------------------------------------------------------------
