----------------------------------------------------------------
        Layer (type)               Output Shape         Param #
================================================================
            Conv2d-1          [-1, 128, 30, 30]          24,704
         LayerNorm-2          [-1, 30, 30, 128]             256
        PatchEmbed-3          [-1, 30, 30, 128]               0
          Identity-4          [-1, 30, 30, 128]               0
         LayerNorm-5          [-1, 30, 30, 128]             256
            Linear-6              [-1, 49, 384]          49,536
           Softmax-7            [-1, 4, 49, 49]               0
           Dropout-8            [-1, 4, 49, 49]               0
            Linear-9              [-1, 49, 128]          16,512
          Dropout-10              [-1, 49, 128]               0
  WindowAttention-11              [-1, 49, 128]               0
         Identity-12          [-1, 30, 30, 128]               0
        LayerNorm-13             [-1, 900, 128]             256
           Linear-14             [-1, 900, 512]          66,048
             GELU-15             [-1, 900, 512]               0
          Dropout-16             [-1, 900, 512]               0
         Identity-17             [-1, 900, 512]               0
           Linear-18             [-1, 900, 128]          65,664
          Dropout-19             [-1, 900, 128]               0
              Mlp-20             [-1, 900, 128]               0
         Identity-21             [-1, 900, 128]               0
SwinTransformerBlock-22          [-1, 30, 30, 128]               0
        LayerNorm-23          [-1, 30, 30, 128]             256
           Linear-24              [-1, 49, 384]          49,536
          Softmax-25            [-1, 4, 49, 49]               0
          Dropout-26            [-1, 4, 49, 49]               0
           Linear-27              [-1, 49, 128]          16,512
          Dropout-28              [-1, 49, 128]               0
  WindowAttention-29              [-1, 49, 128]               0
         DropPath-30          [-1, 30, 30, 128]               0
        LayerNorm-31             [-1, 900, 128]             256
           Linear-32             [-1, 900, 512]          66,048
             GELU-33             [-1, 900, 512]               0
          Dropout-34             [-1, 900, 512]               0
         Identity-35             [-1, 900, 512]               0
           Linear-36             [-1, 900, 128]          65,664
          Dropout-37             [-1, 900, 128]               0
              Mlp-38             [-1, 900, 128]               0
         DropPath-39             [-1, 900, 128]               0
SwinTransformerBlock-40          [-1, 30, 30, 128]               0
SwinTransformerStage-41          [-1, 30, 30, 128]               0
        LayerNorm-42          [-1, 15, 15, 512]           1,024
           Linear-43          [-1, 15, 15, 256]         131,072
     PatchMerging-44          [-1, 15, 15, 256]               0
        LayerNorm-45          [-1, 15, 15, 256]             512
           Linear-46              [-1, 49, 768]         197,376
          Softmax-47            [-1, 8, 49, 49]               0
          Dropout-48            [-1, 8, 49, 49]               0
           Linear-49              [-1, 49, 256]          65,792
          Dropout-50              [-1, 49, 256]               0
  WindowAttention-51              [-1, 49, 256]               0
         DropPath-52          [-1, 15, 15, 256]               0
        LayerNorm-53             [-1, 225, 256]             512
           Linear-54            [-1, 225, 1024]         263,168
             GELU-55            [-1, 225, 1024]               0
          Dropout-56            [-1, 225, 1024]               0
         Identity-57            [-1, 225, 1024]               0
           Linear-58             [-1, 225, 256]         262,400
          Dropout-59             [-1, 225, 256]               0
              Mlp-60             [-1, 225, 256]               0
         DropPath-61             [-1, 225, 256]               0
SwinTransformerBlock-62          [-1, 15, 15, 256]               0
        LayerNorm-63          [-1, 15, 15, 256]             512
           Linear-64              [-1, 49, 768]         197,376
          Softmax-65            [-1, 8, 49, 49]               0
          Dropout-66            [-1, 8, 49, 49]               0
           Linear-67              [-1, 49, 256]          65,792
          Dropout-68              [-1, 49, 256]               0
  WindowAttention-69              [-1, 49, 256]               0
         DropPath-70          [-1, 15, 15, 256]               0
        LayerNorm-71             [-1, 225, 256]             512
           Linear-72            [-1, 225, 1024]         263,168
             GELU-73            [-1, 225, 1024]               0
          Dropout-74            [-1, 225, 1024]               0
         Identity-75            [-1, 225, 1024]               0
           Linear-76             [-1, 225, 256]         262,400
          Dropout-77             [-1, 225, 256]               0
              Mlp-78             [-1, 225, 256]               0
         DropPath-79             [-1, 225, 256]               0
SwinTransformerBlock-80          [-1, 15, 15, 256]               0
SwinTransformerStage-81          [-1, 15, 15, 256]               0
        LayerNorm-82           [-1, 8, 8, 1024]           2,048
           Linear-83            [-1, 8, 8, 512]         524,288
     PatchMerging-84            [-1, 8, 8, 512]               0
        LayerNorm-85            [-1, 8, 8, 512]           1,024
           Linear-86             [-1, 49, 1536]         787,968
          Softmax-87           [-1, 16, 49, 49]               0
          Dropout-88           [-1, 16, 49, 49]               0
           Linear-89              [-1, 49, 512]         262,656
          Dropout-90              [-1, 49, 512]               0
  WindowAttention-91              [-1, 49, 512]               0
         DropPath-92            [-1, 8, 8, 512]               0
        LayerNorm-93              [-1, 64, 512]           1,024
           Linear-94             [-1, 64, 2048]       1,050,624
             GELU-95             [-1, 64, 2048]               0
          Dropout-96             [-1, 64, 2048]               0
         Identity-97             [-1, 64, 2048]               0
           Linear-98              [-1, 64, 512]       1,049,088
          Dropout-99              [-1, 64, 512]               0
             Mlp-100              [-1, 64, 512]               0
        DropPath-101              [-1, 64, 512]               0
SwinTransformerBlock-102            [-1, 8, 8, 512]               0
       LayerNorm-103            [-1, 8, 8, 512]           1,024
          Linear-104             [-1, 49, 1536]         787,968
         Softmax-105           [-1, 16, 49, 49]               0
         Dropout-106           [-1, 16, 49, 49]               0
          Linear-107              [-1, 49, 512]         262,656
         Dropout-108              [-1, 49, 512]               0
 WindowAttention-109              [-1, 49, 512]               0
        DropPath-110            [-1, 8, 8, 512]               0
       LayerNorm-111              [-1, 64, 512]           1,024
          Linear-112             [-1, 64, 2048]       1,050,624
            GELU-113             [-1, 64, 2048]               0
         Dropout-114             [-1, 64, 2048]               0
        Identity-115             [-1, 64, 2048]               0
          Linear-116              [-1, 64, 512]       1,049,088
         Dropout-117              [-1, 64, 512]               0
             Mlp-118              [-1, 64, 512]               0
        DropPath-119              [-1, 64, 512]               0
SwinTransformerBlock-120            [-1, 8, 8, 512]               0
       LayerNorm-121            [-1, 8, 8, 512]           1,024
          Linear-122             [-1, 49, 1536]         787,968
         Softmax-123           [-1, 16, 49, 49]               0
         Dropout-124           [-1, 16, 49, 49]               0
          Linear-125              [-1, 49, 512]         262,656
         Dropout-126              [-1, 49, 512]               0
 WindowAttention-127              [-1, 49, 512]               0
        DropPath-128            [-1, 8, 8, 512]               0
       LayerNorm-129              [-1, 64, 512]           1,024
          Linear-130             [-1, 64, 2048]       1,050,624
            GELU-131             [-1, 64, 2048]               0
         Dropout-132             [-1, 64, 2048]               0
        Identity-133             [-1, 64, 2048]               0
          Linear-134              [-1, 64, 512]       1,049,088
         Dropout-135              [-1, 64, 512]               0
             Mlp-136              [-1, 64, 512]               0
        DropPath-137              [-1, 64, 512]               0
SwinTransformerBlock-138            [-1, 8, 8, 512]               0
       LayerNorm-139            [-1, 8, 8, 512]           1,024
          Linear-140             [-1, 49, 1536]         787,968
         Softmax-141           [-1, 16, 49, 49]               0
         Dropout-142           [-1, 16, 49, 49]               0
          Linear-143              [-1, 49, 512]         262,656
         Dropout-144              [-1, 49, 512]               0
 WindowAttention-145              [-1, 49, 512]               0
        DropPath-146            [-1, 8, 8, 512]               0
       LayerNorm-147              [-1, 64, 512]           1,024
          Linear-148             [-1, 64, 2048]       1,050,624
            GELU-149             [-1, 64, 2048]               0
         Dropout-150             [-1, 64, 2048]               0
        Identity-151             [-1, 64, 2048]               0
          Linear-152              [-1, 64, 512]       1,049,088
         Dropout-153              [-1, 64, 512]               0
             Mlp-154              [-1, 64, 512]               0
        DropPath-155              [-1, 64, 512]               0
SwinTransformerBlock-156            [-1, 8, 8, 512]               0
       LayerNorm-157            [-1, 8, 8, 512]           1,024
          Linear-158             [-1, 49, 1536]         787,968
         Softmax-159           [-1, 16, 49, 49]               0
         Dropout-160           [-1, 16, 49, 49]               0
          Linear-161              [-1, 49, 512]         262,656
         Dropout-162              [-1, 49, 512]               0
 WindowAttention-163              [-1, 49, 512]               0
        DropPath-164            [-1, 8, 8, 512]               0
       LayerNorm-165              [-1, 64, 512]           1,024
          Linear-166             [-1, 64, 2048]       1,050,624
            GELU-167             [-1, 64, 2048]               0
         Dropout-168             [-1, 64, 2048]               0
        Identity-169             [-1, 64, 2048]               0
          Linear-170              [-1, 64, 512]       1,049,088
         Dropout-171              [-1, 64, 512]               0
             Mlp-172              [-1, 64, 512]               0
        DropPath-173              [-1, 64, 512]               0
SwinTransformerBlock-174            [-1, 8, 8, 512]               0
       LayerNorm-175            [-1, 8, 8, 512]           1,024
          Linear-176             [-1, 49, 1536]         787,968
         Softmax-177           [-1, 16, 49, 49]               0
         Dropout-178           [-1, 16, 49, 49]               0
          Linear-179              [-1, 49, 512]         262,656
         Dropout-180              [-1, 49, 512]               0
 WindowAttention-181              [-1, 49, 512]               0
        DropPath-182            [-1, 8, 8, 512]               0
       LayerNorm-183              [-1, 64, 512]           1,024
          Linear-184             [-1, 64, 2048]       1,050,624
            GELU-185             [-1, 64, 2048]               0
         Dropout-186             [-1, 64, 2048]               0
        Identity-187             [-1, 64, 2048]               0
          Linear-188              [-1, 64, 512]       1,049,088
         Dropout-189              [-1, 64, 512]               0
             Mlp-190              [-1, 64, 512]               0
        DropPath-191              [-1, 64, 512]               0
SwinTransformerBlock-192            [-1, 8, 8, 512]               0
       LayerNorm-193            [-1, 8, 8, 512]           1,024
          Linear-194             [-1, 49, 1536]         787,968
         Softmax-195           [-1, 16, 49, 49]               0
         Dropout-196           [-1, 16, 49, 49]               0
          Linear-197              [-1, 49, 512]         262,656
         Dropout-198              [-1, 49, 512]               0
 WindowAttention-199              [-1, 49, 512]               0
        DropPath-200            [-1, 8, 8, 512]               0
       LayerNorm-201              [-1, 64, 512]           1,024
          Linear-202             [-1, 64, 2048]       1,050,624
            GELU-203             [-1, 64, 2048]               0
         Dropout-204             [-1, 64, 2048]               0
        Identity-205             [-1, 64, 2048]               0
          Linear-206              [-1, 64, 512]       1,049,088
         Dropout-207              [-1, 64, 512]               0
             Mlp-208              [-1, 64, 512]               0
        DropPath-209              [-1, 64, 512]               0
SwinTransformerBlock-210            [-1, 8, 8, 512]               0
       LayerNorm-211            [-1, 8, 8, 512]           1,024
          Linear-212             [-1, 49, 1536]         787,968
         Softmax-213           [-1, 16, 49, 49]               0
         Dropout-214           [-1, 16, 49, 49]               0
          Linear-215              [-1, 49, 512]         262,656
         Dropout-216              [-1, 49, 512]               0
 WindowAttention-217              [-1, 49, 512]               0
        DropPath-218            [-1, 8, 8, 512]               0
       LayerNorm-219              [-1, 64, 512]           1,024
          Linear-220             [-1, 64, 2048]       1,050,624
            GELU-221             [-1, 64, 2048]               0
         Dropout-222             [-1, 64, 2048]               0
        Identity-223             [-1, 64, 2048]               0
          Linear-224              [-1, 64, 512]       1,049,088
         Dropout-225              [-1, 64, 512]               0
             Mlp-226              [-1, 64, 512]               0
        DropPath-227              [-1, 64, 512]               0
SwinTransformerBlock-228            [-1, 8, 8, 512]               0
       LayerNorm-229            [-1, 8, 8, 512]           1,024
          Linear-230             [-1, 49, 1536]         787,968
         Softmax-231           [-1, 16, 49, 49]               0
         Dropout-232           [-1, 16, 49, 49]               0
          Linear-233              [-1, 49, 512]         262,656
         Dropout-234              [-1, 49, 512]               0
 WindowAttention-235              [-1, 49, 512]               0
        DropPath-236            [-1, 8, 8, 512]               0
       LayerNorm-237              [-1, 64, 512]           1,024
          Linear-238             [-1, 64, 2048]       1,050,624
            GELU-239             [-1, 64, 2048]               0
         Dropout-240             [-1, 64, 2048]               0
        Identity-241             [-1, 64, 2048]               0
          Linear-242              [-1, 64, 512]       1,049,088
         Dropout-243              [-1, 64, 512]               0
             Mlp-244              [-1, 64, 512]               0
        DropPath-245              [-1, 64, 512]               0
SwinTransformerBlock-246            [-1, 8, 8, 512]               0
       LayerNorm-247            [-1, 8, 8, 512]           1,024
          Linear-248             [-1, 49, 1536]         787,968
         Softmax-249           [-1, 16, 49, 49]               0
         Dropout-250           [-1, 16, 49, 49]               0
          Linear-251              [-1, 49, 512]         262,656
         Dropout-252              [-1, 49, 512]               0
 WindowAttention-253              [-1, 49, 512]               0
        DropPath-254            [-1, 8, 8, 512]               0
       LayerNorm-255              [-1, 64, 512]           1,024
          Linear-256             [-1, 64, 2048]       1,050,624
            GELU-257             [-1, 64, 2048]               0
         Dropout-258             [-1, 64, 2048]               0
        Identity-259             [-1, 64, 2048]               0
          Linear-260              [-1, 64, 512]       1,049,088
         Dropout-261              [-1, 64, 512]               0
             Mlp-262              [-1, 64, 512]               0
        DropPath-263              [-1, 64, 512]               0
SwinTransformerBlock-264            [-1, 8, 8, 512]               0
       LayerNorm-265            [-1, 8, 8, 512]           1,024
          Linear-266             [-1, 49, 1536]         787,968
         Softmax-267           [-1, 16, 49, 49]               0
         Dropout-268           [-1, 16, 49, 49]               0
          Linear-269              [-1, 49, 512]         262,656
         Dropout-270              [-1, 49, 512]               0
 WindowAttention-271              [-1, 49, 512]               0
        DropPath-272            [-1, 8, 8, 512]               0
       LayerNorm-273              [-1, 64, 512]           1,024
          Linear-274             [-1, 64, 2048]       1,050,624
            GELU-275             [-1, 64, 2048]               0
         Dropout-276             [-1, 64, 2048]               0
        Identity-277             [-1, 64, 2048]               0
          Linear-278              [-1, 64, 512]       1,049,088
         Dropout-279              [-1, 64, 512]               0
             Mlp-280              [-1, 64, 512]               0
        DropPath-281              [-1, 64, 512]               0
SwinTransformerBlock-282            [-1, 8, 8, 512]               0
       LayerNorm-283            [-1, 8, 8, 512]           1,024
          Linear-284             [-1, 49, 1536]         787,968
         Softmax-285           [-1, 16, 49, 49]               0
         Dropout-286           [-1, 16, 49, 49]               0
          Linear-287              [-1, 49, 512]         262,656
         Dropout-288              [-1, 49, 512]               0
 WindowAttention-289              [-1, 49, 512]               0
        DropPath-290            [-1, 8, 8, 512]               0
       LayerNorm-291              [-1, 64, 512]           1,024
          Linear-292             [-1, 64, 2048]       1,050,624
            GELU-293             [-1, 64, 2048]               0
         Dropout-294             [-1, 64, 2048]               0
        Identity-295             [-1, 64, 2048]               0
          Linear-296              [-1, 64, 512]       1,049,088
         Dropout-297              [-1, 64, 512]               0
             Mlp-298              [-1, 64, 512]               0
        DropPath-299              [-1, 64, 512]               0
SwinTransformerBlock-300            [-1, 8, 8, 512]               0
       LayerNorm-301            [-1, 8, 8, 512]           1,024
          Linear-302             [-1, 49, 1536]         787,968
         Softmax-303           [-1, 16, 49, 49]               0
         Dropout-304           [-1, 16, 49, 49]               0
          Linear-305              [-1, 49, 512]         262,656
         Dropout-306              [-1, 49, 512]               0
 WindowAttention-307              [-1, 49, 512]               0
        DropPath-308            [-1, 8, 8, 512]               0
       LayerNorm-309              [-1, 64, 512]           1,024
          Linear-310             [-1, 64, 2048]       1,050,624
            GELU-311             [-1, 64, 2048]               0
         Dropout-312             [-1, 64, 2048]               0
        Identity-313             [-1, 64, 2048]               0
          Linear-314              [-1, 64, 512]       1,049,088
         Dropout-315              [-1, 64, 512]               0
             Mlp-316              [-1, 64, 512]               0
        DropPath-317              [-1, 64, 512]               0
SwinTransformerBlock-318            [-1, 8, 8, 512]               0
       LayerNorm-319            [-1, 8, 8, 512]           1,024
          Linear-320             [-1, 49, 1536]         787,968
         Softmax-321           [-1, 16, 49, 49]               0
         Dropout-322           [-1, 16, 49, 49]               0
          Linear-323              [-1, 49, 512]         262,656
         Dropout-324              [-1, 49, 512]               0
 WindowAttention-325              [-1, 49, 512]               0
        DropPath-326            [-1, 8, 8, 512]               0
       LayerNorm-327              [-1, 64, 512]           1,024
          Linear-328             [-1, 64, 2048]       1,050,624
            GELU-329             [-1, 64, 2048]               0
         Dropout-330             [-1, 64, 2048]               0
        Identity-331             [-1, 64, 2048]               0
          Linear-332              [-1, 64, 512]       1,049,088
         Dropout-333              [-1, 64, 512]               0
             Mlp-334              [-1, 64, 512]               0
        DropPath-335              [-1, 64, 512]               0
SwinTransformerBlock-336            [-1, 8, 8, 512]               0
       LayerNorm-337            [-1, 8, 8, 512]           1,024
          Linear-338             [-1, 49, 1536]         787,968
         Softmax-339           [-1, 16, 49, 49]               0
         Dropout-340           [-1, 16, 49, 49]               0
          Linear-341              [-1, 49, 512]         262,656
         Dropout-342              [-1, 49, 512]               0
 WindowAttention-343              [-1, 49, 512]               0
        DropPath-344            [-1, 8, 8, 512]               0
       LayerNorm-345              [-1, 64, 512]           1,024
          Linear-346             [-1, 64, 2048]       1,050,624
            GELU-347             [-1, 64, 2048]               0
         Dropout-348             [-1, 64, 2048]               0
        Identity-349             [-1, 64, 2048]               0
          Linear-350              [-1, 64, 512]       1,049,088
         Dropout-351              [-1, 64, 512]               0
             Mlp-352              [-1, 64, 512]               0
        DropPath-353              [-1, 64, 512]               0
SwinTransformerBlock-354            [-1, 8, 8, 512]               0
       LayerNorm-355            [-1, 8, 8, 512]           1,024
          Linear-356             [-1, 49, 1536]         787,968
         Softmax-357           [-1, 16, 49, 49]               0
         Dropout-358           [-1, 16, 49, 49]               0
          Linear-359              [-1, 49, 512]         262,656
         Dropout-360              [-1, 49, 512]               0
 WindowAttention-361              [-1, 49, 512]               0
        DropPath-362            [-1, 8, 8, 512]               0
       LayerNorm-363              [-1, 64, 512]           1,024
          Linear-364             [-1, 64, 2048]       1,050,624
            GELU-365             [-1, 64, 2048]               0
         Dropout-366             [-1, 64, 2048]               0
        Identity-367             [-1, 64, 2048]               0
          Linear-368              [-1, 64, 512]       1,049,088
         Dropout-369              [-1, 64, 512]               0
             Mlp-370              [-1, 64, 512]               0
        DropPath-371              [-1, 64, 512]               0
SwinTransformerBlock-372            [-1, 8, 8, 512]               0
       LayerNorm-373            [-1, 8, 8, 512]           1,024
          Linear-374             [-1, 49, 1536]         787,968
         Softmax-375           [-1, 16, 49, 49]               0
         Dropout-376           [-1, 16, 49, 49]               0
          Linear-377              [-1, 49, 512]         262,656
         Dropout-378              [-1, 49, 512]               0
 WindowAttention-379              [-1, 49, 512]               0
        DropPath-380            [-1, 8, 8, 512]               0
       LayerNorm-381              [-1, 64, 512]           1,024
          Linear-382             [-1, 64, 2048]       1,050,624
            GELU-383             [-1, 64, 2048]               0
         Dropout-384             [-1, 64, 2048]               0
        Identity-385             [-1, 64, 2048]               0
          Linear-386              [-1, 64, 512]       1,049,088
         Dropout-387              [-1, 64, 512]               0
             Mlp-388              [-1, 64, 512]               0
        DropPath-389              [-1, 64, 512]               0
SwinTransformerBlock-390            [-1, 8, 8, 512]               0
       LayerNorm-391            [-1, 8, 8, 512]           1,024
          Linear-392             [-1, 49, 1536]         787,968
         Softmax-393           [-1, 16, 49, 49]               0
         Dropout-394           [-1, 16, 49, 49]               0
          Linear-395              [-1, 49, 512]         262,656
         Dropout-396              [-1, 49, 512]               0
 WindowAttention-397              [-1, 49, 512]               0
        DropPath-398            [-1, 8, 8, 512]               0
       LayerNorm-399              [-1, 64, 512]           1,024
          Linear-400             [-1, 64, 2048]       1,050,624
            GELU-401             [-1, 64, 2048]               0
         Dropout-402             [-1, 64, 2048]               0
        Identity-403             [-1, 64, 2048]               0
          Linear-404              [-1, 64, 512]       1,049,088
         Dropout-405              [-1, 64, 512]               0
             Mlp-406              [-1, 64, 512]               0
        DropPath-407              [-1, 64, 512]               0
SwinTransformerBlock-408            [-1, 8, 8, 512]               0
SwinTransformerStage-409            [-1, 8, 8, 512]               0
       LayerNorm-410           [-1, 4, 4, 2048]           4,096
          Linear-411           [-1, 4, 4, 1024]       2,097,152
    PatchMerging-412           [-1, 4, 4, 1024]               0
       LayerNorm-413           [-1, 4, 4, 1024]           2,048
          Linear-414              [-1, 9, 3072]       3,148,800
         Softmax-415             [-1, 32, 9, 9]               0
         Dropout-416             [-1, 32, 9, 9]               0
          Linear-417              [-1, 9, 1024]       1,049,600
         Dropout-418              [-1, 9, 1024]               0
 WindowAttention-419              [-1, 9, 1024]               0
        DropPath-420           [-1, 4, 4, 1024]               0
       LayerNorm-421             [-1, 16, 1024]           2,048
          Linear-422             [-1, 16, 4096]       4,198,400
            GELU-423             [-1, 16, 4096]               0
         Dropout-424             [-1, 16, 4096]               0
        Identity-425             [-1, 16, 4096]               0
          Linear-426             [-1, 16, 1024]       4,195,328
         Dropout-427             [-1, 16, 1024]               0
             Mlp-428             [-1, 16, 1024]               0
        DropPath-429             [-1, 16, 1024]               0
SwinTransformerBlock-430           [-1, 4, 4, 1024]               0
       LayerNorm-431           [-1, 4, 4, 1024]           2,048
          Linear-432              [-1, 9, 3072]       3,148,800
         Softmax-433             [-1, 32, 9, 9]               0
         Dropout-434             [-1, 32, 9, 9]               0
          Linear-435              [-1, 9, 1024]       1,049,600
         Dropout-436              [-1, 9, 1024]               0
 WindowAttention-437              [-1, 9, 1024]               0
        DropPath-438           [-1, 4, 4, 1024]               0
       LayerNorm-439             [-1, 16, 1024]           2,048
          Linear-440             [-1, 16, 4096]       4,198,400
            GELU-441             [-1, 16, 4096]               0
         Dropout-442             [-1, 16, 4096]               0
        Identity-443             [-1, 16, 4096]               0
          Linear-444             [-1, 16, 1024]       4,195,328
         Dropout-445             [-1, 16, 1024]               0
             Mlp-446             [-1, 16, 1024]               0
        DropPath-447             [-1, 16, 1024]               0
SwinTransformerBlock-448           [-1, 4, 4, 1024]               0
SwinTransformerStage-449           [-1, 4, 4, 1024]               0
       LayerNorm-450           [-1, 4, 4, 1024]           2,048
FastAdaptiveAvgPool-451                 [-1, 1024]               0
        Identity-452                 [-1, 1024]               0
SelectAdaptivePool2d-453                 [-1, 1024]               0
         Dropout-454                 [-1, 1024]               0
          Linear-455                   [-1, 19]          19,475
        Identity-456                   [-1, 19]               0
  ClassifierHead-457                   [-1, 19]               0
================================================================
Total params: 86,717,587
Trainable params: 86,717,587
Non-trainable params: 0
----------------------------------------------------------------
Input size (MB): 0.66
Forward/backward pass size (MB): 220.65
Params size (MB): 330.80
Estimated Total Size (MB): 552.11
----------------------------------------------------------------
