----------------------------------------------------------------
        Layer (type)               Output Shape         Param #
================================================================
            Conv2d-1           [-1, 24, 60, 60]           2,592
       BatchNorm2d-2           [-1, 24, 60, 60]              48
              SiLU-3           [-1, 24, 60, 60]               0
            Conv2d-4           [-1, 24, 60, 60]           5,184
       BatchNorm2d-5           [-1, 24, 60, 60]              48
              SiLU-6           [-1, 24, 60, 60]               0
   StochasticDepth-7           [-1, 24, 60, 60]               0
       FusedMBConv-8           [-1, 24, 60, 60]               0
            Conv2d-9           [-1, 24, 60, 60]           5,184
      BatchNorm2d-10           [-1, 24, 60, 60]              48
             SiLU-11           [-1, 24, 60, 60]               0
  StochasticDepth-12           [-1, 24, 60, 60]               0
      FusedMBConv-13           [-1, 24, 60, 60]               0
           Conv2d-14           [-1, 24, 60, 60]           5,184
      BatchNorm2d-15           [-1, 24, 60, 60]              48
             SiLU-16           [-1, 24, 60, 60]               0
  StochasticDepth-17           [-1, 24, 60, 60]               0
      FusedMBConv-18           [-1, 24, 60, 60]               0
           Conv2d-19           [-1, 96, 30, 30]          20,736
      BatchNorm2d-20           [-1, 96, 30, 30]             192
             SiLU-21           [-1, 96, 30, 30]               0
           Conv2d-22           [-1, 48, 30, 30]           4,608
      BatchNorm2d-23           [-1, 48, 30, 30]              96
      FusedMBConv-24           [-1, 48, 30, 30]               0
           Conv2d-25          [-1, 192, 30, 30]          82,944
      BatchNorm2d-26          [-1, 192, 30, 30]             384
             SiLU-27          [-1, 192, 30, 30]               0
           Conv2d-28           [-1, 48, 30, 30]           9,216
      BatchNorm2d-29           [-1, 48, 30, 30]              96
  StochasticDepth-30           [-1, 48, 30, 30]               0
      FusedMBConv-31           [-1, 48, 30, 30]               0
           Conv2d-32          [-1, 192, 30, 30]          82,944
      BatchNorm2d-33          [-1, 192, 30, 30]             384
             SiLU-34          [-1, 192, 30, 30]               0
           Conv2d-35           [-1, 48, 30, 30]           9,216
      BatchNorm2d-36           [-1, 48, 30, 30]              96
  StochasticDepth-37           [-1, 48, 30, 30]               0
      FusedMBConv-38           [-1, 48, 30, 30]               0
           Conv2d-39          [-1, 192, 30, 30]          82,944
      BatchNorm2d-40          [-1, 192, 30, 30]             384
             SiLU-41          [-1, 192, 30, 30]               0
           Conv2d-42           [-1, 48, 30, 30]           9,216
      BatchNorm2d-43           [-1, 48, 30, 30]              96
  StochasticDepth-44           [-1, 48, 30, 30]               0
      FusedMBConv-45           [-1, 48, 30, 30]               0
           Conv2d-46          [-1, 192, 30, 30]          82,944
      BatchNorm2d-47          [-1, 192, 30, 30]             384
             SiLU-48          [-1, 192, 30, 30]               0
           Conv2d-49           [-1, 48, 30, 30]           9,216
      BatchNorm2d-50           [-1, 48, 30, 30]              96
  StochasticDepth-51           [-1, 48, 30, 30]               0
      FusedMBConv-52           [-1, 48, 30, 30]               0
           Conv2d-53          [-1, 192, 15, 15]          82,944
      BatchNorm2d-54          [-1, 192, 15, 15]             384
             SiLU-55          [-1, 192, 15, 15]               0
           Conv2d-56           [-1, 80, 15, 15]          15,360
      BatchNorm2d-57           [-1, 80, 15, 15]             160
      FusedMBConv-58           [-1, 80, 15, 15]               0
           Conv2d-59          [-1, 320, 15, 15]         230,400
      BatchNorm2d-60          [-1, 320, 15, 15]             640
             SiLU-61          [-1, 320, 15, 15]               0
           Conv2d-62           [-1, 80, 15, 15]          25,600
      BatchNorm2d-63           [-1, 80, 15, 15]             160
  StochasticDepth-64           [-1, 80, 15, 15]               0
      FusedMBConv-65           [-1, 80, 15, 15]               0
           Conv2d-66          [-1, 320, 15, 15]         230,400
      BatchNorm2d-67          [-1, 320, 15, 15]             640
             SiLU-68          [-1, 320, 15, 15]               0
           Conv2d-69           [-1, 80, 15, 15]          25,600
      BatchNorm2d-70           [-1, 80, 15, 15]             160
  StochasticDepth-71           [-1, 80, 15, 15]               0
      FusedMBConv-72           [-1, 80, 15, 15]               0
           Conv2d-73          [-1, 320, 15, 15]         230,400
      BatchNorm2d-74          [-1, 320, 15, 15]             640
             SiLU-75          [-1, 320, 15, 15]               0
           Conv2d-76           [-1, 80, 15, 15]          25,600
      BatchNorm2d-77           [-1, 80, 15, 15]             160
  StochasticDepth-78           [-1, 80, 15, 15]               0
      FusedMBConv-79           [-1, 80, 15, 15]               0
           Conv2d-80          [-1, 320, 15, 15]         230,400
      BatchNorm2d-81          [-1, 320, 15, 15]             640
             SiLU-82          [-1, 320, 15, 15]               0
           Conv2d-83           [-1, 80, 15, 15]          25,600
      BatchNorm2d-84           [-1, 80, 15, 15]             160
  StochasticDepth-85           [-1, 80, 15, 15]               0
      FusedMBConv-86           [-1, 80, 15, 15]               0
           Conv2d-87          [-1, 320, 15, 15]          25,600
      BatchNorm2d-88          [-1, 320, 15, 15]             640
             SiLU-89          [-1, 320, 15, 15]               0
           Conv2d-90            [-1, 320, 8, 8]           2,880
      BatchNorm2d-91            [-1, 320, 8, 8]             640
             SiLU-92            [-1, 320, 8, 8]               0
AdaptiveAvgPool2d-93            [-1, 320, 1, 1]               0
           Conv2d-94             [-1, 20, 1, 1]           6,420
             SiLU-95             [-1, 20, 1, 1]               0
           Conv2d-96            [-1, 320, 1, 1]           6,720
          Sigmoid-97            [-1, 320, 1, 1]               0
SqueezeExcitation-98            [-1, 320, 8, 8]               0
           Conv2d-99            [-1, 160, 8, 8]          51,200
     BatchNorm2d-100            [-1, 160, 8, 8]             320
          MBConv-101            [-1, 160, 8, 8]               0
          Conv2d-102            [-1, 640, 8, 8]         102,400
     BatchNorm2d-103            [-1, 640, 8, 8]           1,280
            SiLU-104            [-1, 640, 8, 8]               0
          Conv2d-105            [-1, 640, 8, 8]           5,760
     BatchNorm2d-106            [-1, 640, 8, 8]           1,280
            SiLU-107            [-1, 640, 8, 8]               0
AdaptiveAvgPool2d-108            [-1, 640, 1, 1]               0
          Conv2d-109             [-1, 40, 1, 1]          25,640
            SiLU-110             [-1, 40, 1, 1]               0
          Conv2d-111            [-1, 640, 1, 1]          26,240
         Sigmoid-112            [-1, 640, 1, 1]               0
SqueezeExcitation-113            [-1, 640, 8, 8]               0
          Conv2d-114            [-1, 160, 8, 8]         102,400
     BatchNorm2d-115            [-1, 160, 8, 8]             320
 StochasticDepth-116            [-1, 160, 8, 8]               0
          MBConv-117            [-1, 160, 8, 8]               0
          Conv2d-118            [-1, 640, 8, 8]         102,400
     BatchNorm2d-119            [-1, 640, 8, 8]           1,280
            SiLU-120            [-1, 640, 8, 8]               0
          Conv2d-121            [-1, 640, 8, 8]           5,760
     BatchNorm2d-122            [-1, 640, 8, 8]           1,280
            SiLU-123            [-1, 640, 8, 8]               0
AdaptiveAvgPool2d-124            [-1, 640, 1, 1]               0
          Conv2d-125             [-1, 40, 1, 1]          25,640
            SiLU-126             [-1, 40, 1, 1]               0
          Conv2d-127            [-1, 640, 1, 1]          26,240
         Sigmoid-128            [-1, 640, 1, 1]               0
SqueezeExcitation-129            [-1, 640, 8, 8]               0
          Conv2d-130            [-1, 160, 8, 8]         102,400
     BatchNorm2d-131            [-1, 160, 8, 8]             320
 StochasticDepth-132            [-1, 160, 8, 8]               0
          MBConv-133            [-1, 160, 8, 8]               0
          Conv2d-134            [-1, 640, 8, 8]         102,400
     BatchNorm2d-135            [-1, 640, 8, 8]           1,280
            SiLU-136            [-1, 640, 8, 8]               0
          Conv2d-137            [-1, 640, 8, 8]           5,760
     BatchNorm2d-138            [-1, 640, 8, 8]           1,280
            SiLU-139            [-1, 640, 8, 8]               0
AdaptiveAvgPool2d-140            [-1, 640, 1, 1]               0
          Conv2d-141             [-1, 40, 1, 1]          25,640
            SiLU-142             [-1, 40, 1, 1]               0
          Conv2d-143            [-1, 640, 1, 1]          26,240
         Sigmoid-144            [-1, 640, 1, 1]               0
SqueezeExcitation-145            [-1, 640, 8, 8]               0
          Conv2d-146            [-1, 160, 8, 8]         102,400
     BatchNorm2d-147            [-1, 160, 8, 8]             320
 StochasticDepth-148            [-1, 160, 8, 8]               0
          MBConv-149            [-1, 160, 8, 8]               0
          Conv2d-150            [-1, 640, 8, 8]         102,400
     BatchNorm2d-151            [-1, 640, 8, 8]           1,280
            SiLU-152            [-1, 640, 8, 8]               0
          Conv2d-153            [-1, 640, 8, 8]           5,760
     BatchNorm2d-154            [-1, 640, 8, 8]           1,280
            SiLU-155            [-1, 640, 8, 8]               0
AdaptiveAvgPool2d-156            [-1, 640, 1, 1]               0
          Conv2d-157             [-1, 40, 1, 1]          25,640
            SiLU-158             [-1, 40, 1, 1]               0
          Conv2d-159            [-1, 640, 1, 1]          26,240
         Sigmoid-160            [-1, 640, 1, 1]               0
SqueezeExcitation-161            [-1, 640, 8, 8]               0
          Conv2d-162            [-1, 160, 8, 8]         102,400
     BatchNorm2d-163            [-1, 160, 8, 8]             320
 StochasticDepth-164            [-1, 160, 8, 8]               0
          MBConv-165            [-1, 160, 8, 8]               0
          Conv2d-166            [-1, 640, 8, 8]         102,400
     BatchNorm2d-167            [-1, 640, 8, 8]           1,280
            SiLU-168            [-1, 640, 8, 8]               0
          Conv2d-169            [-1, 640, 8, 8]           5,760
     BatchNorm2d-170            [-1, 640, 8, 8]           1,280
            SiLU-171            [-1, 640, 8, 8]               0
AdaptiveAvgPool2d-172            [-1, 640, 1, 1]               0
          Conv2d-173             [-1, 40, 1, 1]          25,640
            SiLU-174             [-1, 40, 1, 1]               0
          Conv2d-175            [-1, 640, 1, 1]          26,240
         Sigmoid-176            [-1, 640, 1, 1]               0
SqueezeExcitation-177            [-1, 640, 8, 8]               0
          Conv2d-178            [-1, 160, 8, 8]         102,400
     BatchNorm2d-179            [-1, 160, 8, 8]             320
 StochasticDepth-180            [-1, 160, 8, 8]               0
          MBConv-181            [-1, 160, 8, 8]               0
          Conv2d-182            [-1, 640, 8, 8]         102,400
     BatchNorm2d-183            [-1, 640, 8, 8]           1,280
            SiLU-184            [-1, 640, 8, 8]               0
          Conv2d-185            [-1, 640, 8, 8]           5,760
     BatchNorm2d-186            [-1, 640, 8, 8]           1,280
            SiLU-187            [-1, 640, 8, 8]               0
AdaptiveAvgPool2d-188            [-1, 640, 1, 1]               0
          Conv2d-189             [-1, 40, 1, 1]          25,640
            SiLU-190             [-1, 40, 1, 1]               0
          Conv2d-191            [-1, 640, 1, 1]          26,240
         Sigmoid-192            [-1, 640, 1, 1]               0
SqueezeExcitation-193            [-1, 640, 8, 8]               0
          Conv2d-194            [-1, 160, 8, 8]         102,400
     BatchNorm2d-195            [-1, 160, 8, 8]             320
 StochasticDepth-196            [-1, 160, 8, 8]               0
          MBConv-197            [-1, 160, 8, 8]               0
          Conv2d-198            [-1, 960, 8, 8]         153,600
     BatchNorm2d-199            [-1, 960, 8, 8]           1,920
            SiLU-200            [-1, 960, 8, 8]               0
          Conv2d-201            [-1, 960, 8, 8]           8,640
     BatchNorm2d-202            [-1, 960, 8, 8]           1,920
            SiLU-203            [-1, 960, 8, 8]               0
AdaptiveAvgPool2d-204            [-1, 960, 1, 1]               0
          Conv2d-205             [-1, 40, 1, 1]          38,440
            SiLU-206             [-1, 40, 1, 1]               0
          Conv2d-207            [-1, 960, 1, 1]          39,360
         Sigmoid-208            [-1, 960, 1, 1]               0
SqueezeExcitation-209            [-1, 960, 8, 8]               0
          Conv2d-210            [-1, 176, 8, 8]         168,960
     BatchNorm2d-211            [-1, 176, 8, 8]             352
          MBConv-212            [-1, 176, 8, 8]               0
          Conv2d-213           [-1, 1056, 8, 8]         185,856
     BatchNorm2d-214           [-1, 1056, 8, 8]           2,112
            SiLU-215           [-1, 1056, 8, 8]               0
          Conv2d-216           [-1, 1056, 8, 8]           9,504
     BatchNorm2d-217           [-1, 1056, 8, 8]           2,112
            SiLU-218           [-1, 1056, 8, 8]               0
AdaptiveAvgPool2d-219           [-1, 1056, 1, 1]               0
          Conv2d-220             [-1, 44, 1, 1]          46,508
            SiLU-221             [-1, 44, 1, 1]               0
          Conv2d-222           [-1, 1056, 1, 1]          47,520
         Sigmoid-223           [-1, 1056, 1, 1]               0
SqueezeExcitation-224           [-1, 1056, 8, 8]               0
          Conv2d-225            [-1, 176, 8, 8]         185,856
     BatchNorm2d-226            [-1, 176, 8, 8]             352
 StochasticDepth-227            [-1, 176, 8, 8]               0
          MBConv-228            [-1, 176, 8, 8]               0
          Conv2d-229           [-1, 1056, 8, 8]         185,856
     BatchNorm2d-230           [-1, 1056, 8, 8]           2,112
            SiLU-231           [-1, 1056, 8, 8]               0
          Conv2d-232           [-1, 1056, 8, 8]           9,504
     BatchNorm2d-233           [-1, 1056, 8, 8]           2,112
            SiLU-234           [-1, 1056, 8, 8]               0
AdaptiveAvgPool2d-235           [-1, 1056, 1, 1]               0
          Conv2d-236             [-1, 44, 1, 1]          46,508
            SiLU-237             [-1, 44, 1, 1]               0
          Conv2d-238           [-1, 1056, 1, 1]          47,520
         Sigmoid-239           [-1, 1056, 1, 1]               0
SqueezeExcitation-240           [-1, 1056, 8, 8]               0
          Conv2d-241            [-1, 176, 8, 8]         185,856
     BatchNorm2d-242            [-1, 176, 8, 8]             352
 StochasticDepth-243            [-1, 176, 8, 8]               0
          MBConv-244            [-1, 176, 8, 8]               0
          Conv2d-245           [-1, 1056, 8, 8]         185,856
     BatchNorm2d-246           [-1, 1056, 8, 8]           2,112
            SiLU-247           [-1, 1056, 8, 8]               0
          Conv2d-248           [-1, 1056, 8, 8]           9,504
     BatchNorm2d-249           [-1, 1056, 8, 8]           2,112
            SiLU-250           [-1, 1056, 8, 8]               0
AdaptiveAvgPool2d-251           [-1, 1056, 1, 1]               0
          Conv2d-252             [-1, 44, 1, 1]          46,508
            SiLU-253             [-1, 44, 1, 1]               0
          Conv2d-254           [-1, 1056, 1, 1]          47,520
         Sigmoid-255           [-1, 1056, 1, 1]               0
SqueezeExcitation-256           [-1, 1056, 8, 8]               0
          Conv2d-257            [-1, 176, 8, 8]         185,856
     BatchNorm2d-258            [-1, 176, 8, 8]             352
 StochasticDepth-259            [-1, 176, 8, 8]               0
          MBConv-260            [-1, 176, 8, 8]               0
          Conv2d-261           [-1, 1056, 8, 8]         185,856
     BatchNorm2d-262           [-1, 1056, 8, 8]           2,112
            SiLU-263           [-1, 1056, 8, 8]               0
          Conv2d-264           [-1, 1056, 8, 8]           9,504
     BatchNorm2d-265           [-1, 1056, 8, 8]           2,112
            SiLU-266           [-1, 1056, 8, 8]               0
AdaptiveAvgPool2d-267           [-1, 1056, 1, 1]               0
          Conv2d-268             [-1, 44, 1, 1]          46,508
            SiLU-269             [-1, 44, 1, 1]               0
          Conv2d-270           [-1, 1056, 1, 1]          47,520
         Sigmoid-271           [-1, 1056, 1, 1]               0
SqueezeExcitation-272           [-1, 1056, 8, 8]               0
          Conv2d-273            [-1, 176, 8, 8]         185,856
     BatchNorm2d-274            [-1, 176, 8, 8]             352
 StochasticDepth-275            [-1, 176, 8, 8]               0
          MBConv-276            [-1, 176, 8, 8]               0
          Conv2d-277           [-1, 1056, 8, 8]         185,856
     BatchNorm2d-278           [-1, 1056, 8, 8]           2,112
            SiLU-279           [-1, 1056, 8, 8]               0
          Conv2d-280           [-1, 1056, 8, 8]           9,504
     BatchNorm2d-281           [-1, 1056, 8, 8]           2,112
            SiLU-282           [-1, 1056, 8, 8]               0
AdaptiveAvgPool2d-283           [-1, 1056, 1, 1]               0
          Conv2d-284             [-1, 44, 1, 1]          46,508
            SiLU-285             [-1, 44, 1, 1]               0
          Conv2d-286           [-1, 1056, 1, 1]          47,520
         Sigmoid-287           [-1, 1056, 1, 1]               0
SqueezeExcitation-288           [-1, 1056, 8, 8]               0
          Conv2d-289            [-1, 176, 8, 8]         185,856
     BatchNorm2d-290            [-1, 176, 8, 8]             352
 StochasticDepth-291            [-1, 176, 8, 8]               0
          MBConv-292            [-1, 176, 8, 8]               0
          Conv2d-293           [-1, 1056, 8, 8]         185,856
     BatchNorm2d-294           [-1, 1056, 8, 8]           2,112
            SiLU-295           [-1, 1056, 8, 8]               0
          Conv2d-296           [-1, 1056, 8, 8]           9,504
     BatchNorm2d-297           [-1, 1056, 8, 8]           2,112
            SiLU-298           [-1, 1056, 8, 8]               0
AdaptiveAvgPool2d-299           [-1, 1056, 1, 1]               0
          Conv2d-300             [-1, 44, 1, 1]          46,508
            SiLU-301             [-1, 44, 1, 1]               0
          Conv2d-302           [-1, 1056, 1, 1]          47,520
         Sigmoid-303           [-1, 1056, 1, 1]               0
SqueezeExcitation-304           [-1, 1056, 8, 8]               0
          Conv2d-305            [-1, 176, 8, 8]         185,856
     BatchNorm2d-306            [-1, 176, 8, 8]             352
 StochasticDepth-307            [-1, 176, 8, 8]               0
          MBConv-308            [-1, 176, 8, 8]               0
          Conv2d-309           [-1, 1056, 8, 8]         185,856
     BatchNorm2d-310           [-1, 1056, 8, 8]           2,112
            SiLU-311           [-1, 1056, 8, 8]               0
          Conv2d-312           [-1, 1056, 8, 8]           9,504
     BatchNorm2d-313           [-1, 1056, 8, 8]           2,112
            SiLU-314           [-1, 1056, 8, 8]               0
AdaptiveAvgPool2d-315           [-1, 1056, 1, 1]               0
          Conv2d-316             [-1, 44, 1, 1]          46,508
            SiLU-317             [-1, 44, 1, 1]               0
          Conv2d-318           [-1, 1056, 1, 1]          47,520
         Sigmoid-319           [-1, 1056, 1, 1]               0
SqueezeExcitation-320           [-1, 1056, 8, 8]               0
          Conv2d-321            [-1, 176, 8, 8]         185,856
     BatchNorm2d-322            [-1, 176, 8, 8]             352
 StochasticDepth-323            [-1, 176, 8, 8]               0
          MBConv-324            [-1, 176, 8, 8]               0
          Conv2d-325           [-1, 1056, 8, 8]         185,856
     BatchNorm2d-326           [-1, 1056, 8, 8]           2,112
            SiLU-327           [-1, 1056, 8, 8]               0
          Conv2d-328           [-1, 1056, 8, 8]           9,504
     BatchNorm2d-329           [-1, 1056, 8, 8]           2,112
            SiLU-330           [-1, 1056, 8, 8]               0
AdaptiveAvgPool2d-331           [-1, 1056, 1, 1]               0
          Conv2d-332             [-1, 44, 1, 1]          46,508
            SiLU-333             [-1, 44, 1, 1]               0
          Conv2d-334           [-1, 1056, 1, 1]          47,520
         Sigmoid-335           [-1, 1056, 1, 1]               0
SqueezeExcitation-336           [-1, 1056, 8, 8]               0
          Conv2d-337            [-1, 176, 8, 8]         185,856
     BatchNorm2d-338            [-1, 176, 8, 8]             352
 StochasticDepth-339            [-1, 176, 8, 8]               0
          MBConv-340            [-1, 176, 8, 8]               0
          Conv2d-341           [-1, 1056, 8, 8]         185,856
     BatchNorm2d-342           [-1, 1056, 8, 8]           2,112
            SiLU-343           [-1, 1056, 8, 8]               0
          Conv2d-344           [-1, 1056, 8, 8]           9,504
     BatchNorm2d-345           [-1, 1056, 8, 8]           2,112
            SiLU-346           [-1, 1056, 8, 8]               0
AdaptiveAvgPool2d-347           [-1, 1056, 1, 1]               0
          Conv2d-348             [-1, 44, 1, 1]          46,508
            SiLU-349             [-1, 44, 1, 1]               0
          Conv2d-350           [-1, 1056, 1, 1]          47,520
         Sigmoid-351           [-1, 1056, 1, 1]               0
SqueezeExcitation-352           [-1, 1056, 8, 8]               0
          Conv2d-353            [-1, 176, 8, 8]         185,856
     BatchNorm2d-354            [-1, 176, 8, 8]             352
 StochasticDepth-355            [-1, 176, 8, 8]               0
          MBConv-356            [-1, 176, 8, 8]               0
          Conv2d-357           [-1, 1056, 8, 8]         185,856
     BatchNorm2d-358           [-1, 1056, 8, 8]           2,112
            SiLU-359           [-1, 1056, 8, 8]               0
          Conv2d-360           [-1, 1056, 8, 8]           9,504
     BatchNorm2d-361           [-1, 1056, 8, 8]           2,112
            SiLU-362           [-1, 1056, 8, 8]               0
AdaptiveAvgPool2d-363           [-1, 1056, 1, 1]               0
          Conv2d-364             [-1, 44, 1, 1]          46,508
            SiLU-365             [-1, 44, 1, 1]               0
          Conv2d-366           [-1, 1056, 1, 1]          47,520
         Sigmoid-367           [-1, 1056, 1, 1]               0
SqueezeExcitation-368           [-1, 1056, 8, 8]               0
          Conv2d-369            [-1, 176, 8, 8]         185,856
     BatchNorm2d-370            [-1, 176, 8, 8]             352
 StochasticDepth-371            [-1, 176, 8, 8]               0
          MBConv-372            [-1, 176, 8, 8]               0
          Conv2d-373           [-1, 1056, 8, 8]         185,856
     BatchNorm2d-374           [-1, 1056, 8, 8]           2,112
            SiLU-375           [-1, 1056, 8, 8]               0
          Conv2d-376           [-1, 1056, 8, 8]           9,504
     BatchNorm2d-377           [-1, 1056, 8, 8]           2,112
            SiLU-378           [-1, 1056, 8, 8]               0
AdaptiveAvgPool2d-379           [-1, 1056, 1, 1]               0
          Conv2d-380             [-1, 44, 1, 1]          46,508
            SiLU-381             [-1, 44, 1, 1]               0
          Conv2d-382           [-1, 1056, 1, 1]          47,520
         Sigmoid-383           [-1, 1056, 1, 1]               0
SqueezeExcitation-384           [-1, 1056, 8, 8]               0
          Conv2d-385            [-1, 176, 8, 8]         185,856
     BatchNorm2d-386            [-1, 176, 8, 8]             352
 StochasticDepth-387            [-1, 176, 8, 8]               0
          MBConv-388            [-1, 176, 8, 8]               0
          Conv2d-389           [-1, 1056, 8, 8]         185,856
     BatchNorm2d-390           [-1, 1056, 8, 8]           2,112
            SiLU-391           [-1, 1056, 8, 8]               0
          Conv2d-392           [-1, 1056, 8, 8]           9,504
     BatchNorm2d-393           [-1, 1056, 8, 8]           2,112
            SiLU-394           [-1, 1056, 8, 8]               0
AdaptiveAvgPool2d-395           [-1, 1056, 1, 1]               0
          Conv2d-396             [-1, 44, 1, 1]          46,508
            SiLU-397             [-1, 44, 1, 1]               0
          Conv2d-398           [-1, 1056, 1, 1]          47,520
         Sigmoid-399           [-1, 1056, 1, 1]               0
SqueezeExcitation-400           [-1, 1056, 8, 8]               0
          Conv2d-401            [-1, 176, 8, 8]         185,856
     BatchNorm2d-402            [-1, 176, 8, 8]             352
 StochasticDepth-403            [-1, 176, 8, 8]               0
          MBConv-404            [-1, 176, 8, 8]               0
          Conv2d-405           [-1, 1056, 8, 8]         185,856
     BatchNorm2d-406           [-1, 1056, 8, 8]           2,112
            SiLU-407           [-1, 1056, 8, 8]               0
          Conv2d-408           [-1, 1056, 8, 8]           9,504
     BatchNorm2d-409           [-1, 1056, 8, 8]           2,112
            SiLU-410           [-1, 1056, 8, 8]               0
AdaptiveAvgPool2d-411           [-1, 1056, 1, 1]               0
          Conv2d-412             [-1, 44, 1, 1]          46,508
            SiLU-413             [-1, 44, 1, 1]               0
          Conv2d-414           [-1, 1056, 1, 1]          47,520
         Sigmoid-415           [-1, 1056, 1, 1]               0
SqueezeExcitation-416           [-1, 1056, 8, 8]               0
          Conv2d-417            [-1, 176, 8, 8]         185,856
     BatchNorm2d-418            [-1, 176, 8, 8]             352
 StochasticDepth-419            [-1, 176, 8, 8]               0
          MBConv-420            [-1, 176, 8, 8]               0
          Conv2d-421           [-1, 1056, 8, 8]         185,856
     BatchNorm2d-422           [-1, 1056, 8, 8]           2,112
            SiLU-423           [-1, 1056, 8, 8]               0
          Conv2d-424           [-1, 1056, 4, 4]           9,504
     BatchNorm2d-425           [-1, 1056, 4, 4]           2,112
            SiLU-426           [-1, 1056, 4, 4]               0
AdaptiveAvgPool2d-427           [-1, 1056, 1, 1]               0
          Conv2d-428             [-1, 44, 1, 1]          46,508
            SiLU-429             [-1, 44, 1, 1]               0
          Conv2d-430           [-1, 1056, 1, 1]          47,520
         Sigmoid-431           [-1, 1056, 1, 1]               0
SqueezeExcitation-432           [-1, 1056, 4, 4]               0
          Conv2d-433            [-1, 304, 4, 4]         321,024
     BatchNorm2d-434            [-1, 304, 4, 4]             608
          MBConv-435            [-1, 304, 4, 4]               0
          Conv2d-436           [-1, 1824, 4, 4]         554,496
     BatchNorm2d-437           [-1, 1824, 4, 4]           3,648
            SiLU-438           [-1, 1824, 4, 4]               0
          Conv2d-439           [-1, 1824, 4, 4]          16,416
     BatchNorm2d-440           [-1, 1824, 4, 4]           3,648
            SiLU-441           [-1, 1824, 4, 4]               0
AdaptiveAvgPool2d-442           [-1, 1824, 1, 1]               0
          Conv2d-443             [-1, 76, 1, 1]         138,700
            SiLU-444             [-1, 76, 1, 1]               0
          Conv2d-445           [-1, 1824, 1, 1]         140,448
         Sigmoid-446           [-1, 1824, 1, 1]               0
SqueezeExcitation-447           [-1, 1824, 4, 4]               0
          Conv2d-448            [-1, 304, 4, 4]         554,496
     BatchNorm2d-449            [-1, 304, 4, 4]             608
 StochasticDepth-450            [-1, 304, 4, 4]               0
          MBConv-451            [-1, 304, 4, 4]               0
          Conv2d-452           [-1, 1824, 4, 4]         554,496
     BatchNorm2d-453           [-1, 1824, 4, 4]           3,648
            SiLU-454           [-1, 1824, 4, 4]               0
          Conv2d-455           [-1, 1824, 4, 4]          16,416
     BatchNorm2d-456           [-1, 1824, 4, 4]           3,648
            SiLU-457           [-1, 1824, 4, 4]               0
AdaptiveAvgPool2d-458           [-1, 1824, 1, 1]               0
          Conv2d-459             [-1, 76, 1, 1]         138,700
            SiLU-460             [-1, 76, 1, 1]               0
          Conv2d-461           [-1, 1824, 1, 1]         140,448
         Sigmoid-462           [-1, 1824, 1, 1]               0
SqueezeExcitation-463           [-1, 1824, 4, 4]               0
          Conv2d-464            [-1, 304, 4, 4]         554,496
     BatchNorm2d-465            [-1, 304, 4, 4]             608
 StochasticDepth-466            [-1, 304, 4, 4]               0
          MBConv-467            [-1, 304, 4, 4]               0
          Conv2d-468           [-1, 1824, 4, 4]         554,496
     BatchNorm2d-469           [-1, 1824, 4, 4]           3,648
            SiLU-470           [-1, 1824, 4, 4]               0
          Conv2d-471           [-1, 1824, 4, 4]          16,416
     BatchNorm2d-472           [-1, 1824, 4, 4]           3,648
            SiLU-473           [-1, 1824, 4, 4]               0
AdaptiveAvgPool2d-474           [-1, 1824, 1, 1]               0
          Conv2d-475             [-1, 76, 1, 1]         138,700
            SiLU-476             [-1, 76, 1, 1]               0
          Conv2d-477           [-1, 1824, 1, 1]         140,448
         Sigmoid-478           [-1, 1824, 1, 1]               0
SqueezeExcitation-479           [-1, 1824, 4, 4]               0
          Conv2d-480            [-1, 304, 4, 4]         554,496
     BatchNorm2d-481            [-1, 304, 4, 4]             608
 StochasticDepth-482            [-1, 304, 4, 4]               0
          MBConv-483            [-1, 304, 4, 4]               0
          Conv2d-484           [-1, 1824, 4, 4]         554,496
     BatchNorm2d-485           [-1, 1824, 4, 4]           3,648
            SiLU-486           [-1, 1824, 4, 4]               0
          Conv2d-487           [-1, 1824, 4, 4]          16,416
     BatchNorm2d-488           [-1, 1824, 4, 4]           3,648
            SiLU-489           [-1, 1824, 4, 4]               0
AdaptiveAvgPool2d-490           [-1, 1824, 1, 1]               0
          Conv2d-491             [-1, 76, 1, 1]         138,700
            SiLU-492             [-1, 76, 1, 1]               0
          Conv2d-493           [-1, 1824, 1, 1]         140,448
         Sigmoid-494           [-1, 1824, 1, 1]               0
SqueezeExcitation-495           [-1, 1824, 4, 4]               0
          Conv2d-496            [-1, 304, 4, 4]         554,496
     BatchNorm2d-497            [-1, 304, 4, 4]             608
 StochasticDepth-498            [-1, 304, 4, 4]               0
          MBConv-499            [-1, 304, 4, 4]               0
          Conv2d-500           [-1, 1824, 4, 4]         554,496
     BatchNorm2d-501           [-1, 1824, 4, 4]           3,648
            SiLU-502           [-1, 1824, 4, 4]               0
          Conv2d-503           [-1, 1824, 4, 4]          16,416
     BatchNorm2d-504           [-1, 1824, 4, 4]           3,648
            SiLU-505           [-1, 1824, 4, 4]               0
AdaptiveAvgPool2d-506           [-1, 1824, 1, 1]               0
          Conv2d-507             [-1, 76, 1, 1]         138,700
            SiLU-508             [-1, 76, 1, 1]               0
          Conv2d-509           [-1, 1824, 1, 1]         140,448
         Sigmoid-510           [-1, 1824, 1, 1]               0
SqueezeExcitation-511           [-1, 1824, 4, 4]               0
          Conv2d-512            [-1, 304, 4, 4]         554,496
     BatchNorm2d-513            [-1, 304, 4, 4]             608
 StochasticDepth-514            [-1, 304, 4, 4]               0
          MBConv-515            [-1, 304, 4, 4]               0
          Conv2d-516           [-1, 1824, 4, 4]         554,496
     BatchNorm2d-517           [-1, 1824, 4, 4]           3,648
            SiLU-518           [-1, 1824, 4, 4]               0
          Conv2d-519           [-1, 1824, 4, 4]          16,416
     BatchNorm2d-520           [-1, 1824, 4, 4]           3,648
            SiLU-521           [-1, 1824, 4, 4]               0
AdaptiveAvgPool2d-522           [-1, 1824, 1, 1]               0
          Conv2d-523             [-1, 76, 1, 1]         138,700
            SiLU-524             [-1, 76, 1, 1]               0
          Conv2d-525           [-1, 1824, 1, 1]         140,448
         Sigmoid-526           [-1, 1824, 1, 1]               0
SqueezeExcitation-527           [-1, 1824, 4, 4]               0
          Conv2d-528            [-1, 304, 4, 4]         554,496
     BatchNorm2d-529            [-1, 304, 4, 4]             608
 StochasticDepth-530            [-1, 304, 4, 4]               0
          MBConv-531            [-1, 304, 4, 4]               0
          Conv2d-532           [-1, 1824, 4, 4]         554,496
     BatchNorm2d-533           [-1, 1824, 4, 4]           3,648
            SiLU-534           [-1, 1824, 4, 4]               0
          Conv2d-535           [-1, 1824, 4, 4]          16,416
     BatchNorm2d-536           [-1, 1824, 4, 4]           3,648
            SiLU-537           [-1, 1824, 4, 4]               0
AdaptiveAvgPool2d-538           [-1, 1824, 1, 1]               0
          Conv2d-539             [-1, 76, 1, 1]         138,700
            SiLU-540             [-1, 76, 1, 1]               0
          Conv2d-541           [-1, 1824, 1, 1]         140,448
         Sigmoid-542           [-1, 1824, 1, 1]               0
SqueezeExcitation-543           [-1, 1824, 4, 4]               0
          Conv2d-544            [-1, 304, 4, 4]         554,496
     BatchNorm2d-545            [-1, 304, 4, 4]             608
 StochasticDepth-546            [-1, 304, 4, 4]               0
          MBConv-547            [-1, 304, 4, 4]               0
          Conv2d-548           [-1, 1824, 4, 4]         554,496
     BatchNorm2d-549           [-1, 1824, 4, 4]           3,648
            SiLU-550           [-1, 1824, 4, 4]               0
          Conv2d-551           [-1, 1824, 4, 4]          16,416
     BatchNorm2d-552           [-1, 1824, 4, 4]           3,648
            SiLU-553           [-1, 1824, 4, 4]               0
AdaptiveAvgPool2d-554           [-1, 1824, 1, 1]               0
          Conv2d-555             [-1, 76, 1, 1]         138,700
            SiLU-556             [-1, 76, 1, 1]               0
          Conv2d-557           [-1, 1824, 1, 1]         140,448
         Sigmoid-558           [-1, 1824, 1, 1]               0
SqueezeExcitation-559           [-1, 1824, 4, 4]               0
          Conv2d-560            [-1, 304, 4, 4]         554,496
     BatchNorm2d-561            [-1, 304, 4, 4]             608
 StochasticDepth-562            [-1, 304, 4, 4]               0
          MBConv-563            [-1, 304, 4, 4]               0
          Conv2d-564           [-1, 1824, 4, 4]         554,496
     BatchNorm2d-565           [-1, 1824, 4, 4]           3,648
            SiLU-566           [-1, 1824, 4, 4]               0
          Conv2d-567           [-1, 1824, 4, 4]          16,416
     BatchNorm2d-568           [-1, 1824, 4, 4]           3,648
            SiLU-569           [-1, 1824, 4, 4]               0
AdaptiveAvgPool2d-570           [-1, 1824, 1, 1]               0
          Conv2d-571             [-1, 76, 1, 1]         138,700
            SiLU-572             [-1, 76, 1, 1]               0
          Conv2d-573           [-1, 1824, 1, 1]         140,448
         Sigmoid-574           [-1, 1824, 1, 1]               0
SqueezeExcitation-575           [-1, 1824, 4, 4]               0
          Conv2d-576            [-1, 304, 4, 4]         554,496
     BatchNorm2d-577            [-1, 304, 4, 4]             608
 StochasticDepth-578            [-1, 304, 4, 4]               0
          MBConv-579            [-1, 304, 4, 4]               0
          Conv2d-580           [-1, 1824, 4, 4]         554,496
     BatchNorm2d-581           [-1, 1824, 4, 4]           3,648
            SiLU-582           [-1, 1824, 4, 4]               0
          Conv2d-583           [-1, 1824, 4, 4]          16,416
     BatchNorm2d-584           [-1, 1824, 4, 4]           3,648
            SiLU-585           [-1, 1824, 4, 4]               0
AdaptiveAvgPool2d-586           [-1, 1824, 1, 1]               0
          Conv2d-587             [-1, 76, 1, 1]         138,700
            SiLU-588             [-1, 76, 1, 1]               0
          Conv2d-589           [-1, 1824, 1, 1]         140,448
         Sigmoid-590           [-1, 1824, 1, 1]               0
SqueezeExcitation-591           [-1, 1824, 4, 4]               0
          Conv2d-592            [-1, 304, 4, 4]         554,496
     BatchNorm2d-593            [-1, 304, 4, 4]             608
 StochasticDepth-594            [-1, 304, 4, 4]               0
          MBConv-595            [-1, 304, 4, 4]               0
          Conv2d-596           [-1, 1824, 4, 4]         554,496
     BatchNorm2d-597           [-1, 1824, 4, 4]           3,648
            SiLU-598           [-1, 1824, 4, 4]               0
          Conv2d-599           [-1, 1824, 4, 4]          16,416
     BatchNorm2d-600           [-1, 1824, 4, 4]           3,648
            SiLU-601           [-1, 1824, 4, 4]               0
AdaptiveAvgPool2d-602           [-1, 1824, 1, 1]               0
          Conv2d-603             [-1, 76, 1, 1]         138,700
            SiLU-604             [-1, 76, 1, 1]               0
          Conv2d-605           [-1, 1824, 1, 1]         140,448
         Sigmoid-606           [-1, 1824, 1, 1]               0
SqueezeExcitation-607           [-1, 1824, 4, 4]               0
          Conv2d-608            [-1, 304, 4, 4]         554,496
     BatchNorm2d-609            [-1, 304, 4, 4]             608
 StochasticDepth-610            [-1, 304, 4, 4]               0
          MBConv-611            [-1, 304, 4, 4]               0
          Conv2d-612           [-1, 1824, 4, 4]         554,496
     BatchNorm2d-613           [-1, 1824, 4, 4]           3,648
            SiLU-614           [-1, 1824, 4, 4]               0
          Conv2d-615           [-1, 1824, 4, 4]          16,416
     BatchNorm2d-616           [-1, 1824, 4, 4]           3,648
            SiLU-617           [-1, 1824, 4, 4]               0
AdaptiveAvgPool2d-618           [-1, 1824, 1, 1]               0
          Conv2d-619             [-1, 76, 1, 1]         138,700
            SiLU-620             [-1, 76, 1, 1]               0
          Conv2d-621           [-1, 1824, 1, 1]         140,448
         Sigmoid-622           [-1, 1824, 1, 1]               0
SqueezeExcitation-623           [-1, 1824, 4, 4]               0
          Conv2d-624            [-1, 304, 4, 4]         554,496
     BatchNorm2d-625            [-1, 304, 4, 4]             608
 StochasticDepth-626            [-1, 304, 4, 4]               0
          MBConv-627            [-1, 304, 4, 4]               0
          Conv2d-628           [-1, 1824, 4, 4]         554,496
     BatchNorm2d-629           [-1, 1824, 4, 4]           3,648
            SiLU-630           [-1, 1824, 4, 4]               0
          Conv2d-631           [-1, 1824, 4, 4]          16,416
     BatchNorm2d-632           [-1, 1824, 4, 4]           3,648
            SiLU-633           [-1, 1824, 4, 4]               0
AdaptiveAvgPool2d-634           [-1, 1824, 1, 1]               0
          Conv2d-635             [-1, 76, 1, 1]         138,700
            SiLU-636             [-1, 76, 1, 1]               0
          Conv2d-637           [-1, 1824, 1, 1]         140,448
         Sigmoid-638           [-1, 1824, 1, 1]               0
SqueezeExcitation-639           [-1, 1824, 4, 4]               0
          Conv2d-640            [-1, 304, 4, 4]         554,496
     BatchNorm2d-641            [-1, 304, 4, 4]             608
 StochasticDepth-642            [-1, 304, 4, 4]               0
          MBConv-643            [-1, 304, 4, 4]               0
          Conv2d-644           [-1, 1824, 4, 4]         554,496
     BatchNorm2d-645           [-1, 1824, 4, 4]           3,648
            SiLU-646           [-1, 1824, 4, 4]               0
          Conv2d-647           [-1, 1824, 4, 4]          16,416
     BatchNorm2d-648           [-1, 1824, 4, 4]           3,648
            SiLU-649           [-1, 1824, 4, 4]               0
AdaptiveAvgPool2d-650           [-1, 1824, 1, 1]               0
          Conv2d-651             [-1, 76, 1, 1]         138,700
            SiLU-652             [-1, 76, 1, 1]               0
          Conv2d-653           [-1, 1824, 1, 1]         140,448
         Sigmoid-654           [-1, 1824, 1, 1]               0
SqueezeExcitation-655           [-1, 1824, 4, 4]               0
          Conv2d-656            [-1, 304, 4, 4]         554,496
     BatchNorm2d-657            [-1, 304, 4, 4]             608
 StochasticDepth-658            [-1, 304, 4, 4]               0
          MBConv-659            [-1, 304, 4, 4]               0
          Conv2d-660           [-1, 1824, 4, 4]         554,496
     BatchNorm2d-661           [-1, 1824, 4, 4]           3,648
            SiLU-662           [-1, 1824, 4, 4]               0
          Conv2d-663           [-1, 1824, 4, 4]          16,416
     BatchNorm2d-664           [-1, 1824, 4, 4]           3,648
            SiLU-665           [-1, 1824, 4, 4]               0
AdaptiveAvgPool2d-666           [-1, 1824, 1, 1]               0
          Conv2d-667             [-1, 76, 1, 1]         138,700
            SiLU-668             [-1, 76, 1, 1]               0
          Conv2d-669           [-1, 1824, 1, 1]         140,448
         Sigmoid-670           [-1, 1824, 1, 1]               0
SqueezeExcitation-671           [-1, 1824, 4, 4]               0
          Conv2d-672            [-1, 304, 4, 4]         554,496
     BatchNorm2d-673            [-1, 304, 4, 4]             608
 StochasticDepth-674            [-1, 304, 4, 4]               0
          MBConv-675            [-1, 304, 4, 4]               0
          Conv2d-676           [-1, 1824, 4, 4]         554,496
     BatchNorm2d-677           [-1, 1824, 4, 4]           3,648
            SiLU-678           [-1, 1824, 4, 4]               0
          Conv2d-679           [-1, 1824, 4, 4]          16,416
     BatchNorm2d-680           [-1, 1824, 4, 4]           3,648
            SiLU-681           [-1, 1824, 4, 4]               0
AdaptiveAvgPool2d-682           [-1, 1824, 1, 1]               0
          Conv2d-683             [-1, 76, 1, 1]         138,700
            SiLU-684             [-1, 76, 1, 1]               0
          Conv2d-685           [-1, 1824, 1, 1]         140,448
         Sigmoid-686           [-1, 1824, 1, 1]               0
SqueezeExcitation-687           [-1, 1824, 4, 4]               0
          Conv2d-688            [-1, 304, 4, 4]         554,496
     BatchNorm2d-689            [-1, 304, 4, 4]             608
 StochasticDepth-690            [-1, 304, 4, 4]               0
          MBConv-691            [-1, 304, 4, 4]               0
          Conv2d-692           [-1, 1824, 4, 4]         554,496
     BatchNorm2d-693           [-1, 1824, 4, 4]           3,648
            SiLU-694           [-1, 1824, 4, 4]               0
          Conv2d-695           [-1, 1824, 4, 4]          16,416
     BatchNorm2d-696           [-1, 1824, 4, 4]           3,648
            SiLU-697           [-1, 1824, 4, 4]               0
AdaptiveAvgPool2d-698           [-1, 1824, 1, 1]               0
          Conv2d-699             [-1, 76, 1, 1]         138,700
            SiLU-700             [-1, 76, 1, 1]               0
          Conv2d-701           [-1, 1824, 1, 1]         140,448
         Sigmoid-702           [-1, 1824, 1, 1]               0
SqueezeExcitation-703           [-1, 1824, 4, 4]               0
          Conv2d-704            [-1, 304, 4, 4]         554,496
     BatchNorm2d-705            [-1, 304, 4, 4]             608
 StochasticDepth-706            [-1, 304, 4, 4]               0
          MBConv-707            [-1, 304, 4, 4]               0
          Conv2d-708           [-1, 1824, 4, 4]         554,496
     BatchNorm2d-709           [-1, 1824, 4, 4]           3,648
            SiLU-710           [-1, 1824, 4, 4]               0
          Conv2d-711           [-1, 1824, 4, 4]          16,416
     BatchNorm2d-712           [-1, 1824, 4, 4]           3,648
            SiLU-713           [-1, 1824, 4, 4]               0
AdaptiveAvgPool2d-714           [-1, 1824, 1, 1]               0
          Conv2d-715             [-1, 76, 1, 1]         138,700
            SiLU-716             [-1, 76, 1, 1]               0
          Conv2d-717           [-1, 1824, 1, 1]         140,448
         Sigmoid-718           [-1, 1824, 1, 1]               0
SqueezeExcitation-719           [-1, 1824, 4, 4]               0
          Conv2d-720            [-1, 512, 4, 4]         933,888
     BatchNorm2d-721            [-1, 512, 4, 4]           1,024
          MBConv-722            [-1, 512, 4, 4]               0
          Conv2d-723           [-1, 3072, 4, 4]       1,572,864
     BatchNorm2d-724           [-1, 3072, 4, 4]           6,144
            SiLU-725           [-1, 3072, 4, 4]               0
          Conv2d-726           [-1, 3072, 4, 4]          27,648
     BatchNorm2d-727           [-1, 3072, 4, 4]           6,144
            SiLU-728           [-1, 3072, 4, 4]               0
AdaptiveAvgPool2d-729           [-1, 3072, 1, 1]               0
          Conv2d-730            [-1, 128, 1, 1]         393,344
            SiLU-731            [-1, 128, 1, 1]               0
          Conv2d-732           [-1, 3072, 1, 1]         396,288
         Sigmoid-733           [-1, 3072, 1, 1]               0
SqueezeExcitation-734           [-1, 3072, 4, 4]               0
          Conv2d-735            [-1, 512, 4, 4]       1,572,864
     BatchNorm2d-736            [-1, 512, 4, 4]           1,024
 StochasticDepth-737            [-1, 512, 4, 4]               0
          MBConv-738            [-1, 512, 4, 4]               0
          Conv2d-739           [-1, 3072, 4, 4]       1,572,864
     BatchNorm2d-740           [-1, 3072, 4, 4]           6,144
            SiLU-741           [-1, 3072, 4, 4]               0
          Conv2d-742           [-1, 3072, 4, 4]          27,648
     BatchNorm2d-743           [-1, 3072, 4, 4]           6,144
            SiLU-744           [-1, 3072, 4, 4]               0
AdaptiveAvgPool2d-745           [-1, 3072, 1, 1]               0
          Conv2d-746            [-1, 128, 1, 1]         393,344
            SiLU-747            [-1, 128, 1, 1]               0
          Conv2d-748           [-1, 3072, 1, 1]         396,288
         Sigmoid-749           [-1, 3072, 1, 1]               0
SqueezeExcitation-750           [-1, 3072, 4, 4]               0
          Conv2d-751            [-1, 512, 4, 4]       1,572,864
     BatchNorm2d-752            [-1, 512, 4, 4]           1,024
 StochasticDepth-753            [-1, 512, 4, 4]               0
          MBConv-754            [-1, 512, 4, 4]               0
          Conv2d-755           [-1, 3072, 4, 4]       1,572,864
     BatchNorm2d-756           [-1, 3072, 4, 4]           6,144
            SiLU-757           [-1, 3072, 4, 4]               0
          Conv2d-758           [-1, 3072, 4, 4]          27,648
     BatchNorm2d-759           [-1, 3072, 4, 4]           6,144
            SiLU-760           [-1, 3072, 4, 4]               0
AdaptiveAvgPool2d-761           [-1, 3072, 1, 1]               0
          Conv2d-762            [-1, 128, 1, 1]         393,344
            SiLU-763            [-1, 128, 1, 1]               0
          Conv2d-764           [-1, 3072, 1, 1]         396,288
         Sigmoid-765           [-1, 3072, 1, 1]               0
SqueezeExcitation-766           [-1, 3072, 4, 4]               0
          Conv2d-767            [-1, 512, 4, 4]       1,572,864
     BatchNorm2d-768            [-1, 512, 4, 4]           1,024
 StochasticDepth-769            [-1, 512, 4, 4]               0
          MBConv-770            [-1, 512, 4, 4]               0
          Conv2d-771           [-1, 3072, 4, 4]       1,572,864
     BatchNorm2d-772           [-1, 3072, 4, 4]           6,144
            SiLU-773           [-1, 3072, 4, 4]               0
          Conv2d-774           [-1, 3072, 4, 4]          27,648
     BatchNorm2d-775           [-1, 3072, 4, 4]           6,144
            SiLU-776           [-1, 3072, 4, 4]               0
AdaptiveAvgPool2d-777           [-1, 3072, 1, 1]               0
          Conv2d-778            [-1, 128, 1, 1]         393,344
            SiLU-779            [-1, 128, 1, 1]               0
          Conv2d-780           [-1, 3072, 1, 1]         396,288
         Sigmoid-781           [-1, 3072, 1, 1]               0
SqueezeExcitation-782           [-1, 3072, 4, 4]               0
          Conv2d-783            [-1, 512, 4, 4]       1,572,864
     BatchNorm2d-784            [-1, 512, 4, 4]           1,024
 StochasticDepth-785            [-1, 512, 4, 4]               0
          MBConv-786            [-1, 512, 4, 4]               0
          Conv2d-787           [-1, 1280, 4, 4]         655,360
     BatchNorm2d-788           [-1, 1280, 4, 4]           2,560
            SiLU-789           [-1, 1280, 4, 4]               0
AdaptiveAvgPool2d-790           [-1, 1280, 1, 1]               0
         Dropout-791                 [-1, 1280]               0
          Linear-792                   [-1, 19]          24,339
================================================================
Total params: 52,884,639
Trainable params: 52,884,639
Non-trainable params: 0
----------------------------------------------------------------
Input size (MB): 0.66
Forward/backward pass size (MB): 165.01
Params size (MB): 201.74
Estimated Total Size (MB): 367.41
----------------------------------------------------------------
