----------------------------------------------------------------
        Layer (type)               Output Shape         Param #
================================================================
            Conv2d-1         [-1, 64, 120, 120]           6,976
       BatchNorm2d-2         [-1, 64, 120, 120]             128
              ReLU-3         [-1, 64, 120, 120]               0
         MaxPool2d-4           [-1, 64, 60, 60]               0
            Conv2d-5          [-1, 128, 60, 60]          73,856
       BatchNorm2d-6          [-1, 128, 60, 60]             256
              ReLU-7          [-1, 128, 60, 60]               0
         MaxPool2d-8          [-1, 128, 30, 30]               0
           Flatten-9               [-1, 115200]               0
           Linear-10                  [-1, 512]      58,982,912
             ReLU-11                  [-1, 512]               0
          Dropout-12                  [-1, 512]               0
           Linear-13                   [-1, 19]           9,747
================================================================
Total params: 59,073,875
Trainable params: 59,073,875
Non-trainable params: 0
----------------------------------------------------------------
Input size (MB): 0.66
Forward/backward pass size (MB): 35.17
Params size (MB): 225.35
Estimated Total Size (MB): 261.18
----------------------------------------------------------------
